hybrid_net_ar2.pth (torch_old, 1801 bytes, 6 tensors)

fi.weight f4 [10, 2]
000000 eb 94 10 40 8e 84 e2 bf 9d b8 64 3f 8c 5c b4 c0
       2.2590892 -1.7696702 0.893442 -5.636297
000010 f6 69 f7 3f 08 16 1c c0 c5 0f 03 40 cf 9b 0d c0
       1.9329212 -2.4388447 2.0478375 -2.2126348
000020 d5 74 27 c0 1a 95 51 3f a8 53 45 bf 45 9d c5 40
       -2.6165059 0.81868136 -0.77080774 6.175448
000030 f2 c4 94 bf 4e ba 97 40 fe 04 47 be df 40 09 c1
       -1.1622603 4.7414923 -0.19435498 -8.578338
000040 83 0a 97 bf d6 43 95 40 d9 61 49 3e 9c f5 f3 40
       -1.1800083 4.6645308 0.19666232 7.6237316

fi.bias f4 [10]
000000 96 fb 7e bf 7b 05 7a 3d 23 7f 50 bf cf f3 61 bf
       -0.9960264 0.061040383 -0.81443995 -0.8826265
000010 64 53 92 3f c6 88 31 be 0b 71 27 3e e0 9e 58 3e
       1.1431699 -0.17337331 0.16351716 0.21154356
000020 fe 2a 3a 3e ba e8 4a be
       0.18180463 -0.1981534

fo.weight f4 [1, 10]
000000 56 e0 a7 40 ae bd db 40 fb 86 c0 40 36 69 86 40
       5.2461348 6.8669043 6.016477 4.200343
000010 5b bf a6 c0 e7 6a d4 c0 16 9f ab c0 b3 76 32 41
       -5.210859 -6.6380496 -5.3631697 11.153979
000020 c4 0d 4c c0 c9 99 b8 c0
       -3.1883402 -5.7687726

ri.weight f4 [10, 2]
000000 83 c8 e5 3f 6f 2d 50 c1 0f a5 c4 bf 6c a2 39 41
       1.7951816 -13.011092 -1.5362872 11.602154
000010 04 82 ce bf c2 28 3f 41 f6 65 b1 bf 39 50 35 41
       -1.6133428 11.947451 -1.3859241 11.332086
000020 db 79 d3 3f 27 0e 46 c1 5c 38 e0 bf b7 b6 4b 41
       1.6521562 -12.378455 -1.75172 12.732108
000030 d0 87 d0 3f 21 ef 44 c1 d2 6c bd bf 3a ea 36 41
       1.6291447 -12.308381 -1.4798834 11.432184
000040 21 58 ca bf 60 4e 3a 41 be 86 e4 3f 1e ed 4e c1
       -1.5808145 11.6441345 1.785362 -12.93289

ri.bias f4 [10]
000000 57 2e 03 bf 08 5e 0b 3f b5 b2 06 3f b6 79 15 3f
       -0.51242584 0.54440355 0.52616435 0.5838884
000010 ad b1 0e bf b0 b5 06 3f 89 6f 11 bf ce 38 0f 3f
       -0.5573986 0.52620983 -0.56810814 0.5594605
000020 9e b1 04 3f ad fa f7 be
       0.5183352 -0.48433438

ro.weight f4 [1, 10]
000000 33 84 8c 40 47 9c 94 c0 e4 f7 8f c0 08 98 87 c0
       4.3911376 -4.644077 -4.49901 -4.2373085
000010 2e 28 86 40 36 63 85 c0 51 77 77 40 d6 7a 91 c0
       4.1924047 -4.1683607 3.8666575 -4.5462446
000020 3b 7d 8e c0 74 65 cd 40
       -4.452787 6.4186344
